…
(data:image/gif;base64,…)"]},{"cell_type":"code","metadata":{"id":"uB2UO86g8XQX","colab":{"base_uri":"https://localhost:8080/"},"executionInfo":{"status":"ok","timestamp":1637349939810,"user_tz":-540,"elapsed":519,"user":{"displayName":"박민규","photoUrl":"https://lh3.googleusercontent.com/a/default-user=s64","userId":"00586156377257418934"}},"outputId":"2ce1706f-1f11-4837-dec2-43611e2a100e"},"source":["# 모델 선언 및 구조 확인\n","model = cnn(1,32,10).cuda()\n","print(model)"],"execution_count":10,"outputs":[{"output_type":"stream","name":"stdout","text":["cnn(\n","  (conv_block1): Sequential(\n","    (0): Conv2d(1, 32, kernel_size=(3, 3), stride=(1, 1), padding=(1, 1))\n","    (1): BatchNorm2d(32, eps=1e-05, momentum=0.1, affine=True, track_running_stats=True)\n","    (2): ReLU()\n","    (3): Dropout(p=0.5, inplace=False)\n","    (4): MaxPool2d(kernel_size=2, stride=2, padding=0, dilation=1, ceil_mode=False)\n","  )\n","  (conv_block2): Sequential(\n","    (0): Conv2d(32, 64, kernel_size=(3, 3), stride=(1, 1), padding=(1, 1))\n","    (1): BatchNorm2d(64, eps=1e-05, momentum=0.1, affine=True, track_running_stats=True)\n","    (2): ReLU()\n","    (3): Dropout(p=0.5, inplace=False)\n","    (4): MaxPool2d(kernel_size=2, stride=2, padding=0, dilation=1, ceil_mode=False)\n","  )\n","  (final_block): Sequential(\n","    (0): Conv2d(64, 10, kernel_size=(3, 3), stride=(1, 1), padding=(1, 1))\n","    (1): BatchNorm2d(10, eps=1e-05, momentum=0.1, affine=True, track_running_stats=True)\n","    (2): ReLU()\n","    (3): AdaptiveAvgPool2d(output_size=(1, 1))\n","  )\n",")\n"]}]},{"cell_type":"code","metadata":{"id":"skyu8FVS8jBE","executionInfo":{"status":"ok","timestamp":1637349942825,"user_tz":-540,"elapsed":503,"user":{"displayName":"박민규","photoUrl":"https://lh3.googleusercontent.com/a/default-user=s64","userId"
…
pe":"stream","name":"stderr","text":["Downloading: \"https://github.com/pytorch/vision/archive/v0.6.0.zip\" to /root/.cache/torch/hub/v0.6.0.zip\n","Downloading: \"https://download.pytorch.org/models/resnet50-0676ba61.pth\" to /root/.cache/torch/hub/checkpoints/resnet50-0676ba61.pth\n"]},{"output_type":"display_data","data":{"application/vnd.jupyter.widget-view+json":{"model_id":"34ae1ca150ae460fb4626bdce596a1eb","version_minor":0,"version_major":2},"text/plain":["  0%|          | 0.00/97.8M [00:00<?, ?B/s]"]},"metadata":{}},{"output_type":"stream","name":"stdout","text":["ResNet(\n","  (conv1): Conv2d(3, 64, kernel_size=(7, 7), stride=(2, 2), padding=(3, 3), bias=False)\n","  (bn1): BatchNorm2d(64, eps=1e-05, momentum=0.1, affine=True, track_running_stats=True)\n","  (relu): ReLU(inplace=True)\n","  (maxpool): MaxPool2d(kernel_size=3, stride=2, padding=1, dilation=1, ceil_mode=False)\n","  (layer1): Sequential(\n","    (0): Bottleneck(\n","      (conv1): Conv2d(64, 64, kernel_size=(1, 1), stride=(1, 1), bias=False)\n","      (bn1): BatchNorm2d(64, eps=1e-05, momentum=0.1, affine=True, track_running_stats=True)\n","      (conv2): Conv2d(64, 64, kernel_size=(3, 3), stride=(1, 1), padding=(1, 1), bias=False)\n","      (bn2): BatchNorm2d(64, eps=1e-05, momentum=0.1, affine=True, track_running_stats=True)\n","      (conv3): Conv2d(64, 256, kernel_size=(1, 1), stride=(1, 1), bias=False)\n","      (bn3): BatchNorm2d(256, eps=1e-05, momentum=0.1, affine=True, track_running_stats=True)\n","      (relu): ReLU(inplace=True)\n","      (downsample): Sequential(\n","        (0): Conv2d(64, 256, kernel_size=(1, 1), stride=(1, 1), bias=False)\n","        (1): BatchNorm2d(256, eps=1e-05, momentum=0.1, affine=True, track_running_stats=True)\n","      )\n","    )\n","    (1): Bottleneck(\n","      (conv1): Conv2d(256, 64, kernel_size=(1, 1), stride=(1, 1), bias=False)\n","      (bn1): BatchNorm2d(64, eps=1e-05, momentum=0.1, affine=True, track_running_stats=True)\n","      (conv2): Conv2d(64, 64, kernel_size=(3, 3), stride=(1, 1), padding=(1, 1), bias=False)\n","      (bn2): BatchNorm2d(64, eps=1e-05, momentum=0.1, affine=True, track_running_stats=True)\n","      (conv3): Conv2d(64, 256, kernel_size=(1, 1), stride=(1, 1), bias=False)\n","      (bn3): BatchNorm2d(256, eps=1e-05, momentum=0.1, affine=True, track_running_stats=True)\n","      (relu): ReLU(inplace=True)\n","    )\n","    (2): Bottleneck(\n","      (conv1): Conv2d(256, 64, kernel_size=(1, 1), stride=(1, 1), bias=False)\n","      (bn1): BatchNorm2d(64, eps=1e-05, momentum=0.1, affine=True, track_running_stats=True)\n","      (conv2): Conv2d(64, 64, kernel_size=(3, 3), stride=(1, 1), padding=(1, 1), bias=False)\n","      (bn2): BatchNorm2d(64, eps=1e-05, momentum=0.1, affine=True, track_running_stats=True)\n","      (conv3): Conv2d(64, 256, kernel_size=(1, 1), stride=(1, 1), bias=False)\n","      (bn3): BatchNorm2d(256, eps=1e-05, momentum=0.1, affine=True, track_running_stats=True)\n","      (relu): ReLU(inplace=True)\n","    )\n","  )\n","  (layer2): Sequential(\n","    (0): Bottleneck(\n","      (conv1): Conv2d(256, 128, kernel_size=(1, 1), stride=(1, 1), bias=False)\n","      (bn1): BatchNorm2d(128, eps=1e-05, momentum=0.1, affine=True, track_running_stats=True)\n","      (conv2): Conv2d(128, 128, kernel_size=(3, 3), stride=(2, 2), padding=(1, 1), bias=False)\n","      (bn2): BatchNorm2d(128, eps=1e-05, momentum=0.1, affine=True, track_running_stats=True)\n","      (conv3): Conv2d(128, 512, kernel_size=(1, 1), stride=(1, 1), bias=False)\n","      (bn3): BatchNorm2d(512, eps=1e-05, momentum=0.1, affine=True, track_running_stats=True)\n","      (relu): ReLU(inplace=True)\n","      (downsample): Sequential(\n","        (0): Conv2d(256, 512, kernel_size=(1, 1), stride=(2, 2), bias=False)\n","        (1): BatchNorm2d(512, eps=1e-05, momentum=0.1, affine=True, track_running_stats=True)\n","      )\n","    )\n","    (1): Bottleneck(\n","      (conv1): Conv2d(512, 128, kernel_size=(1, 1), stride=(1, 1), bias=False)\n","      (bn1): BatchNorm2d(128, eps=1e-05, momentum=0.1, affine=True, track_running_stats=True)\n","      (conv2): Conv2d(128, 128, kernel_size=(3, 3), stride=(1, 1), padding=(1, 1), bias=False)\n","      (bn2): BatchNorm2d(128, eps=1e-05, momentum=0.1, affine=True, track_running_stats=True)\n","      (conv3): Conv2d(128, 512, kernel_size=(1, 1), stride=(1, 1), bias=False)\n","      (bn3): BatchNorm2d(512, eps=1e-05, momentum=0.1, affine=True, track_running_stats=True)\n","      (relu): ReLU(inplace=True)\n","    )\n","    (2): Bottleneck(\n","      (conv1): Conv2d(512, 128, kernel_size=(1, 1), stride=(1, 1), bias=False)\n","      (bn1): BatchNorm2d(128, eps=1e-05, momentum=0.1, affine=True, track_running_stats=True)\n","      (conv2): Conv2d(128, 128, kernel_size=(3, 3), stride=(1, 1), padding=(1, 1), bias=False)\n","      (bn2): BatchNorm2d(128, eps=1e-05, momentum=0.1, affine=True, track_running_stats=True)\n","      (conv3): Conv2d(128, 512, kernel_size=(1, 1), stride=(1, 1), bias=False)\n","      (bn3): BatchNorm2d(512, eps=1e-05, momentum=0.1, affine=True, track_running_stats=True)\n","      (relu): ReLU(inplace=True)\n","    )\n","    (3): Bottleneck(\n","      (conv1): Conv2d(512, 128, kernel_size=(1, 1), stride=(1, 1), bias=False)\n","      (bn1): BatchNorm2d(128, eps=1e-05, momentum=0.1, affine=True, track_running_stats=True)\n","      (conv2): Conv2d(128, 128, kernel_size=(3, 3), stride=(1, 1), padding=(1, 1), bias=False)\n","      (bn2): BatchNorm2d(128, eps=1e-05, momentum=0.1, affine=True, track_running_stats=True)\n","      (conv3): Conv2d(128, 512, kernel_size=(1, 1), stride=(1, 1), bias=False)\n","      (bn3): BatchNorm2d(512, eps=1e-05, momentum=0.1, affine=True, track_running_stats=True)\n","      (relu): ReLU(inplace=True)\n","    )\n","  )\n","  (layer3): Sequential(\n","    (0): Bottleneck(\n","      (conv1): Conv2d(512, 256, kernel_size=(1, 1), stride=(1, 1), bias=False)\n","      (bn1): BatchNorm2d(256, eps=1e-05, momentum=0.1, affine=True, track_running_stats=True)\n","      (conv2): Conv2d(256, 256, kernel_size=(3, 3), stride=(2, 2), padding=(1, 1), bias=False)\n","      (bn2): BatchNorm2d(256, eps=1e-05, momentum=0.1, affine=True, track_running_stats=True)\n","      (conv3): Conv2d(256, 1024, kernel_size=(1, 1), stride=(1, 1), bias=False)\n","      (bn3): BatchNorm2d(1024, eps=1e-05, momentum=0.1, affine=True, track_running_stats=True)\n","      (relu): ReLU(inplace=True)\n","      (downsample): Sequential(\n","        (0): Conv2d(512, 1024, kernel_size=(1, 1), stride=(2, 2), bias=False)\n","        (1): BatchNorm2d(1024, eps=1e-05, momentum=0.1, affine=True, track_running_stats=True)\n","      )\n","    )\n","    (1): Bottleneck(\n","      (conv1): Conv2d(1024, 256, kernel_size=(1, 1), stride=(1, 1), bias=False)\n","      (bn1): BatchNorm2d(256, eps=1e-05, momentum=0.1, affine=True, track_running_stats=True)\n","      (conv2): Conv2d(256, 256, kernel_size=(3, 3), stride=(1, 1), padding=(1, 1), bias=False)\n","      (bn2): BatchNorm2d(256, eps=1e-05, momentum=0.1, affine=True, track_running_stats=True)\n","      (conv3): Conv2d(256, 1024, kernel_size=(1, 1), stride=(1, 1), bias=False)\n","      (bn3): BatchNorm2d(1024, eps=1e-05, momentum=0.1, affine=True, track_running_stats=True)\n","      (relu): ReLU(inplace=True)\n","    )\n","    (2): Bottleneck(\n","      (conv1): Conv2d(1024, 256, kernel_size=(1, 1), stride=(1, 1), bias=False)\n","      (bn1): BatchNorm2d(256, eps=1e-05, momentum=0.1, affine=True, track_running_stats=True)\n","      (conv2): Conv2d(256, 256, kernel_size=(3, 3), stride=(1, 1), padding=(1, 1), bias=False)\n","      (bn2): BatchNorm2d(256, eps=1e-05, momentum=0.1, affine=True, track_running_stats=True)\n","      (conv3): Conv2d(256, 1024, kernel_size=(1, 1), stride=(1, 1), bias=False)\n","      (bn3): BatchNorm2d(1024, eps=1e-05, momentum=0.1, affine=True, track_running_stats=True)\n","      (relu): ReLU(inplace=True)\n","    )\n","    (3): Bottleneck(\n","      (conv1): Conv2d(1024, 256, kernel_size=(1, 1), stride=(1, 1), bias=False)\n","      (bn1): BatchNorm2d(256, eps=1e-05, momentum=0.1, affine=True, track_running_stats=True)\n","      (conv2): Conv2d(256, 256, kernel_size=(3, 3), stride=(1, 1), padding=(1, 1), bias=False)\n","      (bn2): BatchNorm2d(256, eps=1e-05, momentum=0.1, affine=True, track_running_stats=True)\n","      (conv3): Conv2d(256, 1024, kernel_size=(1, 1), stride=(1, 1), bias=False)\n","      (bn3): BatchNorm2d(1024, eps=1e-05, momentum=0.1, affine=True, track_running_stats=True)\n","      (relu): ReLU(inplace=True)\n","    )\n","    (4): Bottleneck(\n","      (conv1): Conv2d(1024, 256, kernel_size=(1, 1), stride=(1, 1), bias=False)\n","      (bn1): BatchNorm2d(256, eps=1e-05, momentum=0.1, affine=True, track_running_stats=True)\n","      (conv2): Conv2d(256, 256, kernel_size=(3, 3), stride=(1, 1), padding=(1, 1), bias=False)\n","      (bn2): BatchNorm2d(256, eps=1e-05, momentum=0.1, affine=True, track_running_stats=True)\n","      (conv3): Conv2d(256, 1024, kernel_size=(1, 1), stride=(1, 1), bias=False)\n","      (bn3): BatchNorm2d(1024, eps=1e-05, momentum=0.1, affine=True, track_running_stats=True)\n","      (relu): ReLU(inplace=True)\n","    )\n","    (5): Bottleneck(\n","      (conv1): Conv2d(1024, 256, kernel_size=(1, 1), stride=(1, 1), bias=False)\n","      (bn1): BatchNorm2d(256, eps=1e-05, momentum=0.1, affine=True, track_running_stats=True)\n","      (conv2): Conv2d(256, 256, kernel_size=(3, 3), stride=(1, 1), padding=(1, 1), bias=False)\n","      (bn2): BatchNorm2d(256, eps=1e-05, momentum=0.1, affine=True, track_running_stats=True)\n","      (conv3): Conv2d(256, 1024, kernel_size=(1, 1), stride=(1, 1), bias=False)\n","      (bn3): BatchNorm2d(1024, eps=1e-05, momentum=0.1, affine=True, track_running_stats=True)\n","      (relu): ReLU(inplace=True)\n","    )\n","  )\n","  (layer4): Sequential(\n","    (0): Bottleneck(\n","      (conv1): Conv2d(1024, 512, kernel_size=(1, 1), stride=(1, 1), bias=False)\n","      (bn1): BatchNorm2d(512, eps=1e-05, momentum=0.1, affine=True, track_running_stats=True)\n","      (conv2): Conv2d(512, 512, kernel_size=(3, 3), stride=(2, 2), padding=(1, 1), bias=False)\n","      (bn2): BatchNorm2d(512, eps=1e-05, momentum=0.1, affine=True, track_running_stats=True)\n","      (conv3): Conv2d(512, 2048, kernel_size=(1, 1), stride=(1, 1), bias=False)\n","      (bn3): BatchNorm2d(2048, eps=1e-05, momentum=0.1, affine=True, track_running_stats=True)\n","      (relu): ReLU(inplace=True)\n","      (downsample): Sequential(\n","        (0): Conv2d(1024, 2048, kernel_size=(1, 1), stride=(2, 2), bias=False)\n","        (1): BatchNorm2d(2048, eps=1e-05, momentum=0.1, affine=True, track_running_stats=True)\n","      )\n","    )\n","    (1): Bottleneck(\n","      (conv1): Conv2d(2048, 512, kernel_size=(1, 1), stride=(1, 1), bias=False)\n","      (bn1): BatchNorm2d(512, eps=1e-05, momentum=0.1, affine=True, track_running_stats=True)\n","      (conv2): Conv2d(512, 512, kernel_size=(3, 3), stride=(1, 1), padding=(1, 1), bias=False)\n","      (bn2): BatchNorm2d(512, eps=1e-05, momentum=0.1, affine=True, track_running_stats=True)\n","      (conv3): Conv2d(512, 2048, kernel_size=(1, 1), stride=(1, 1), bias=False)\n","      (bn3): BatchNorm2d(2048, eps=1e-05, momentum=0.1, affine=True, track_running_stats=True)\n","      (relu): ReLU(inplace=True)\n","    )\n","    (2): Bottleneck(\n","      (conv1): Conv2d(2048, 512, kernel_size=(1, 1), stride=(1, 1), bias=False)\n","      (bn1): BatchNorm2d(512, eps=1e-05, momentum=0.1, affine=True, track_running_stats=True)\n","      (conv2): Conv2d(512, 512, kernel_size=(3, 3), stride=(1, 1), padding=(1, 1), bias=False)\n","      (bn2): BatchNorm2d(512, eps=1e-05, momentum=0.1, affine=True, track_running_stats=True)\n","      (conv3): Conv2d(512, 2048, kernel_size=(1, 1), stride=(1, 1), bias=False)\n","      (bn3): BatchNorm2d(2048, eps=1e-05, momentum=0.1, affine=True, track_running_stats=True)\n","      (relu): ReLU(inplace=True)\n","    )\n","  )\n","  (avgpool): AdaptiveAvgPool2d(output_size=(1, 1))\n","  (fc): Linear(in_features=2048, out_features=1000, bias=True)\n",")\n"]}]},{"cell_type":"code","metadata":{"id":"HsSKiF1nsPs5","colab":{"base_uri":"https://localhost:8080/","height":579,"referenced_widgets":["c3b190bdb0a04b8f9b93c0acb1b6ad66","745d779a52d84d12babe86c8348093dd","2be6aa90376a4c4a8576c334f45f42e2","9092a8fbf3c7449c9d62e64c5a5046bc","805ce358af7d4fcd9ff62e7a314186a1","c0a8189b68da4498a15201d0848ab5
…
tput_type":"stream","name":"stderr","text":["Using cache found in /root/.cache/torch/hub/pytorch_vision_v0.6.0\n","Downloading: \"https://download.pytorch.org/models/alexnet-owt-7be5be79.pth\" to /root/.cache/torch/hub/checkpoints/alexnet-owt-7be5be79.pth\n"]},{"output_type":"display_data","data":{"application/vnd.jupyter.widget-view+json":{"model_id":"c3b190bdb0a04b8f9b93c0acb1b6ad66","version_minor":0,"version_major":2},"text/plain":["  0%|          | 0.00/233M [00:00<?, ?B/s]"]},"metadata":{}},{"output_type":"stream","name":"stdout","text":["AlexNet(\n","  (features): Sequential(\n","    (0): Conv2d(3, 64, kernel_size=(11, 11), stride=(4, 4), padding=(2, 2))\n","    (1): ReLU(inplace=True)\n","    (2): MaxPool2d(kernel_size=3, stride=2, padding=0, dilation=1, ceil_mode=False)\n","    (3): Conv2d(64, 192, kernel_size=(5, 5), stride=(1, 1), padding=(2, 2))\n","    (4): ReLU(inplace=True)\n","    (5): MaxPool2d(kernel_size=3, stride=2, padding=0, dilation=1, ceil_mode=False)\n","    (6): Conv2d(192, 384, kernel_size=(3, 3), stride=(1, 1), padding=(1, 1))\n","    (7): ReLU(inplace=True)\n","    (8): Conv2d(384, 256, kernel_size=(3, 3), stride=(1, 1), padding=(1, 1))\n","    (9): ReLU(inplace=True)\n","    (10): Conv2d(256, 256, kernel_size=(3, 3), stride=(1, 1), padding=(1, 1))\n","    (11): ReLU(inplace=True)\n","    (12): MaxPool2d(kernel_size=3, stride=2, padding=0, dilation=1, ceil_mode=False)\n","  )\n","  (avgpool): AdaptiveAvgPool2d(output_size=(6, 6))\n","  (classifier): Sequential(\n","    (0): Dropout(p=0.5, inplace=False)\n","    (1): Linear(in_features=9216, out_features=4096, bias=True)\n","    (2): ReLU(inplace=True)\n","    (3): Dropout(p=0.5, inplace=False)\n","    (4): Linear(in_features=4096, out_features=4096, bias=True)\n","    (5): ReLU(inplace=True)\n","    (6): Linear(in_features=4096, out_features=1000, bias=True)\n","  )\n",")\n"]}]},{"cell_type":"code","metadata":{"id":"00JIaO_Dsxv9","colab":{"base_uri":"https://localhost:8080/","height":720,"referenced_widgets":["d6ef1029367b43919b6aab94aa65bc3a","c12d6f774f414543abe54fcf92c1f4d8","5bdceed1faff453586581e57fe6f4cac","9d1031bf1dda4cbfacc751c982c1d3ca","c51fb56f3a9e4073afa4587cbd7974e1","40d3fab9becc45dc8b888f
…
,"outputs":[{"output_type":"stream","name":"stderr","text":["Using cache found in /root/.cache/torch/hub/pytorch_vision_v0.6.0\n","Downloading: \"https://download.pytorch.org/models/vgg11-8a719046.pth\" to /root/.cache/torch/hub/checkpoints/vgg11-8a719046.pth\n"]},{"output_type":"display_data","data":{"application/vnd.jupyter.widget-view+json":{"model_id":"d6ef1029367b43919b6aab94aa65bc3a","version_minor":0,"version_major":2},"text/plain":["  0%|          | 0.00/507M [00:00<?, ?B/s]"]},"metadata":{}},{"output_type":"stream","name":"stdout","text":["VGG(\n","  (features): Sequential(\n","    (0): Conv2d(3, 64, kernel_size=(3, 3), stride=(1, 1), padding=(1, 1))\n","    (1): ReLU(inplace=True)\n","    (2): MaxPool2d(kernel_size=2, stride=2, padding=0, dilation=1, ceil_mode=False)\n","    (3): Conv2d(64, 128, kernel_size=(3, 3), stride=(1, 1), padding=(1, 1))\n","    (4): ReLU(inplace=True)\n","    (5): MaxPool2d(kernel_size=2, stride=2, padding=0, dilation=1, ceil_mode=False)\n","    (6): Conv2d(128, 256, kernel_size=(3, 3), stride=(1, 1), padding=(1, 1))\n","    (7): ReLU(inplace=True)\n","    (8): Conv2d(256, 256, kernel_size=(3, 3), stride=(1, 1), padding=(1, 1))\n","    (9): ReLU(inplace=True)\n","    (10): MaxPool2d(kernel_size=2, stride=2, padding=0, dilation=1, ceil_mode=False)\n","    (11): Conv2d(256, 512, kernel_size=(3, 3), stride=(1, 1), padding=(1, 1))\n","    (12): ReLU(inplace=True)\n","    (13): Conv2d(512, 512, kernel_size=(3, 3), stride=(1, 1), padding=(1, 1))\n","    (14): ReLU(inplace=True)\n","    (15): MaxPool2d(kernel_size=2, stride=2, padding=0, dilation=1, ceil_mode=False)\n","    (16): Conv2d(512, 512, kernel_size=(3, 3), stride=(1, 1), padding=(1, 1))\n","    (17): ReLU(inplace=True)\n","    (18): Conv2d(512, 512, kernel_size=(3, 3), stride=(1, 1), padding=(1, 1))\n","    (19): ReLU(inplace=True)\n","    (20): MaxPool2d(kernel_size=2, stride=2, padding=0, dilation=1, ceil_mode=False)\n","  )\n","  (avgpool): AdaptiveAvgPool2d(output_size=(7, 7))\n","  (classifier): Sequential(\n","    (0): Linear(in_features=25088, out_features=4096, bias=True)\n","    (1): ReLU(inplace=True)\n","    (2): Dropout(p=0.5, inplace=False)\n","    (3): Linear(in_features=4096, out_features=4096, bias=True)\n","    (4): ReLU(inplace=True)\n","    (5): Dropout(p=0.5, inplace=False)\n","    (6): Linear(in_features=4096, out_features=1000, bias=True)\n","  )\n",")\n"]}]},{"cell_type":"code","metadata":{"id":"iXBIF7NctLus","colab":{"base_uri":"https://localhost:8080/","height":1000,"referenced_widgets":["2d5231ee8c1340baa85b6a0080b9da92","51d3f390a25044b3bbdfedb75ca948f1","b5f71a31779c4861b682a00012be1d18","000b9c4e6dcf4896b392ef18cd2a9823","fdfb6e4687094b449a1826bda56b9604","01769c955ab54e6fb1d58
…
tput_type":"stream","name":"stderr","text":["Using cache found in /root/.cache/torch/hub/pytorch_vision_v0.6.0\n","Downloading: \"https://download.pytorch.org/models/googlenet-1378be20.pth\" to /root/.cache/torch/hub/checkpoints/googlenet-1378be20.pth\n"]},{"output_type":"display_data","data":{"application/vnd.jupyter.widget-view+json":{"model_id":"2d5231ee8c1340baa85b6a0080b9da92","version_minor":0,"version_major":2},"text/plain":["  0%|          | 0.00/49.7M [00:00<?, ?B/s]"]},"metadata":{}},{"output_type":"stream","name":"stdout","text":["GoogLeNet(\n","  (conv1): BasicConv2d(\n","    (conv): Conv2d(3, 64, kernel_size=(7, 7), stride=(2, 2), padding=(3, 3), bias=False)\n","    (bn): BatchNorm2d(64, eps=0.001, momentum=0.1, affine=True, track_running_stats=True)\n","  )\n","  (maxpool1): MaxPool2d(kernel_size=3, stride=2, padding=0, dilation=1, ceil_mode=True)\n","  (conv2): BasicConv2d(\n","    (conv): Conv2d(64, 64, kernel_size=(1, 1), stride=(1, 1), bias=False)\n","    (bn): BatchNorm2d(64, eps=0.001, momentum=0.1, affine=True, track_running_stats=True)\n","  )\n","  (conv3): BasicConv2d(\n","    (conv): Conv2d(64, 192, kernel_size=(3, 3), stride=(1, 1), padding=(1, 1), bias=False)\n","    (bn): BatchNorm2d(192, eps=0.001, momentum=0.1, affine=True, track_running_stats=True)\n","  )\n","  (maxpool2): MaxPool2d(kernel_size=3, stride=2, padding=0, dilation=1, ceil_mode=True)\n","  (inception3a): Inception(\n","    (branch1): BasicConv2d(\n","      (conv): Conv2d(192, 64, kernel_size=(1, 1), stride=(1, 1), bias=False)\n","      (bn): BatchNorm2d(64, eps=0.001, momentum=0.1, affine=True, track_running_stats=True)\n","    )\n","    (branch2): Sequential(\n","      (0): BasicConv2d(\n","        (conv): Conv2d(192, 96, kernel_size=(1, 1), stride=(1, 1), bias=False)\n","        (bn): BatchNorm2d(96, eps=0.001, momentum=0.1, affine=True, track_running_stats=True)\n","      )\n","      (1): BasicConv2d(\n","        (conv): Conv2d(96, 128, kernel_size=(3, 3), stride=(1, 1), padding=(1, 1), bias=False)\n","        (bn): BatchNorm2d(128, eps=0.001, momentum=0.1, affine=True, track_running_stats=True)\n","      )\n","    )\n","    (branch3): Sequential(\n","      (0): BasicConv2d(\n","        (conv): Conv2d(192, 16, kernel_size=(1, 1), stride=(1, 1), bias=False)\n","        (bn): BatchNorm2d(16, eps=0.001, momentum=0.1, affine=True, track_running_stats=True)\n","      )\n","      (1): BasicConv2d(\n","        (conv): Conv2d(16, 32, kernel_size=(3, 3), stride=(1, 1), padding=(1, 1), bias=False)\n","        (bn): BatchNorm2d(32, eps=0.001, momentum=0.1, affine=True, track_running_stats=True)\n","      )\n","    )\n","    (branch4): Sequential(\n","      (0): MaxPool2d(kernel_size=3, stride=1, padding=1, dilation=1, ceil_mode=True)\n","      (1): BasicConv2d(\n","        (conv): Conv2d(192, 32, kernel_size=(1, 1), stride=(1, 1), bias=False)\n","        (bn): BatchNorm2d(32, eps=0.001, momentum=0.1, affine=True, track_running_stats=True)\n","      )\n","    )\n","  )\n","  (inception3b): Inception(\n","    (branch1): BasicConv2d(\n","      (conv): Conv2d(256, 128, kernel_size=(1, 1), stride=(1, 1), bias=False)\n","      (bn): BatchNorm2d(128, eps=0.001, momentum=0.1, affine=True, track_running_stats=True)\n","    )\n","    (branch2): Sequential(\n","      (0): BasicConv2d(\n","        (conv): Conv2d(256, 128, kernel_size=(1, 1), stride=(1, 1), bias=False)\n","        (bn): BatchNorm2d(128, eps=0.001, momentum=0.1, affine=True, track_running_stats=True)\n","      )\n","      (1): BasicConv2d(\n","        (conv): Conv2d(128, 192, kernel_size=(3, 3), stride=(1, 1), padding=(1, 1), bias=False)\n","        (bn): BatchNorm2d(192, eps=0.001, momentum=0.1, affine=True, track_running_stats=True)\n","      )\n","    )\n","    (branch3): Sequential(\n","      (0): BasicConv2d(\n","        (conv): Conv2d(256, 32, kernel_size=(1, 1), stride=(1, 1), bias=False)\n","        (bn): BatchNorm2d(32, eps=0.001, momentum=0.1, affine=True, track_running_stats=True)\n","      )\n","      (1): BasicConv2d(\n","        (conv): Conv2d(32, 96, kernel_size=(3, 3), stride=(1, 1), padding=(1, 1), bias=False)\n","        (bn): BatchNorm2d(96, eps=0.001, momentum=0.1, affine=True, track_running_stats=True)\n","      )\n","    )\n","    (branch4): Sequential(\n","      (0): MaxPool2d(kernel_size=3, stride=1, padding=1, dilation=1, ceil_mode=True)\n","      (1): BasicConv2d(\n","        (conv): Conv2d(256, 64, kernel_size=(1, 1), stride=(1, 1), bias=False)\n","        (bn): BatchNorm2d(64, eps=0.001, momentum=0.1, affine=True, track_running_stats=True)\n","      )\n","    )\n","  )\n","  (maxpool3): MaxPool2d(kernel_size=3, stride=2, padding=0, dilation=1, ceil_mode=True)\n","  (inception4a): Inception(\n","    (branch1): BasicConv2d(\n","      (conv): Conv2d(480, 192, kernel_size=(1, 1), stride=(1, 1), bias=False)\n","      (bn): BatchNorm2d(192, eps=0.001, momentum=0.1, affine=True, track_running_stats=True)\n","    )\n","    (branch2): Sequential(\n","      (0): BasicConv2d(\n","        (conv): Conv2d(480, 96, kernel_size=(1, 1), stride=(1, 1), bias=False)\n","        (bn): BatchNorm2d(96, eps=0.001, momentum=0.1, affine=True, track_running_stats=True)\n","      )\n","      (1): BasicConv2d(\n","        (conv): Conv2d(96, 208, kernel_size=(3, 3), stride=(1, 1), padding=(1, 1), bias=False)\n","        (bn): BatchNorm2d(208, eps=0.001, momentum=0.1, affine=True, track_running_stats=True)\n","      )\n","    )\n","    (branch3): Sequential(\n","      (0): BasicConv2d(\n","        (conv): Conv2d(480, 16, kernel_size=(1, 1), stride=(1, 1), bias=False)\n","        (bn): BatchNorm2d(16, eps=0.001, momentum=0.1, affine=True, track_running_stats=True)\n","      )\n","      (1): BasicConv2d(\n","        (conv): Conv2d(16, 48, kernel_size=(3, 3), stride=(1, 1), padding=(1, 1), bias=False)\n","        (bn): BatchNorm2d(48, eps=0.001, momentum=0.1, affine=True, track_running_stats=True)\n","      )\n","    )\n","    (branch4): Sequential(\n","      (0): MaxPool2d(kernel_size=3, stride=1, padding=1, dilation=1, ceil_mode=True)\n","      (1): BasicConv2d(\n","        (conv): Conv2d(480, 64, kernel_size=(1, 1), stride=(1, 1), bias=False)\n","        (bn): BatchNorm2d(64, eps=0.001, momentum=0.1, affine=True, track_running_stats=True)\n","      )\n","    )\n","  )\n","  (inception4b): Inception(\n","    (branch1): BasicConv2d(\n","      (conv): Conv2d(512, 160, kernel_size=(1, 1), stride=(1, 1), bias=False)\n","      (bn): BatchNorm2d(160, eps=0.001, momentum=0.1, affine=True, track_running_stats=True)\n","    )\n","    (branch2): Sequential(\n","      (0): BasicConv2d(\n","        (conv): Conv2d(512, 112, kernel_size=(1, 1), stride=(1, 1), bias=False)\n","        (bn): BatchNorm2d(112, eps=0.001, momentum=0.1, affine=True, track_running_stats=True)\n","      )\n","      (1): BasicConv2d(\n","        (conv): Conv2d(112, 224, kernel_size=(3, 3), stride=(1, 1), padding=(1, 1), bias=False)\n","        (bn): BatchNorm2d(224, eps=0.001, momentum=0.1, affine=True, track_running_stats=True)\n","      )\n","    )\n","    (branch3): Sequential(\n","      (0): BasicConv2d(\n","        (conv): Conv2d(512, 24, kernel_size=(1, 1), stride=(1, 1), bias=False)\n","        (bn): BatchNorm2d(24, eps=0.001, momentum=0.1, affine=True, track_running_stats=True)\n","      )\n","      (1): BasicConv2d(\n","        (conv): Conv2d(24, 64, kernel_size=(3, 3), stride=(1, 1), padding=(1, 1), bias=False)\n","        (bn): BatchNorm2d(64, eps=0.001, momentum=0.1, affine=True, track_running_stats=True)\n","      )\n","    )\n","    (branch4): Sequential(\n","      (0): MaxPool2d(kernel_size=3, stride=1, padding=1, dilation=1, ceil_mode=True)\n","      (1): BasicConv2d(\n","        (conv): Conv2d(512, 64, kernel_size=(1, 1), stride=(1, 1), bias=False)\n","        (bn): BatchNorm2d(64, eps=0.001, momentum=0.1, affine=True, track_running_stats=True)\n","      )\n","    )\n","  )\n","  (inception4c): Inception(\n","    (branch1): BasicConv2d(\n","      (conv): Conv2d(512, 128, kernel_size=(1, 1), stride=(1, 1), bias=False)\n","      (bn): BatchNorm2d(128, eps=0.001, momentum=0.1, affine=True, track_running_stats=True)\n","    )\n","    (branch2): Sequential(\n","      (0): BasicConv2d(\n","        (conv): Conv2d(512, 128, kernel_size=(1, 1), stride=(1, 1), bias=False)\n","        (bn): BatchNorm2d(128, eps=0.001, momentum=0.1, affine=True, track_running_stats=True)\n","      )\n","      (1): BasicConv2d(\n","        (conv): Conv2d(128, 256, kernel_size=(3, 3), stride=(1, 1), padding=(1, 1), bias=False)\n","        (bn): BatchNorm2d(256, eps=0.001, momentum=0.1, affine=True, track_running_stats=True)\n","      )\n","    )\n","    (branch3): Sequential(\n","      (0): BasicConv2d(\n","        (conv): Conv2d(512, 24, kernel_size=(1, 1), stride=(1, 1), bias=False)\n","        (bn): BatchNorm2d(24, eps=0.001, momentum=0.1, affine=True, track_running_stats=True)\n","      )\n","      (1): BasicConv2d(\n","        (conv): Conv2d(24, 64, kernel_size=(3, 3), stride=(1, 1), padding=(1, 1), bias=False)\n","        (bn): BatchNorm2d(64, eps=0.001, momentum=0.1, affine=True, track_running_stats=True)\n","      )\n","    )\n","    (branch4): Sequential(\n","      (0): MaxPool2d(kernel_size=3, stride=1, padding=1, dilation=1, ceil_mode=True)\n","      (1): BasicConv2d(\n","        (conv): Conv2d(512, 64, kernel_size=(1, 1), stride=(1, 1), bias=False)\n","        (bn): BatchNorm2d(64, eps=0.001, momentum=0.1, affine=True, track_running_stats=True)\n","      )\n","    )\n","  )\n","  (inception4d): Inception(\n","    (branch1): BasicConv2d(\n","      (conv): Conv2d(512, 112, kernel_size=(1, 1), stride=(1, 1), bias=False)\n","      (bn): BatchNorm2d(112, eps=0.001, momentum=0.1, affine=True, track_running_stats=True)\n","    )\n","    (branch2): Sequential(\n","      (0): BasicConv2d(\n","        (conv): Conv2d(512, 144, kernel_size=(1, 1), stride=(1, 1), bias=False)\n","        (bn): BatchNorm2d(144, eps=0.001, momentum=0.1, affine=True, track_running_stats=True)\n","      )\n","      (1): BasicConv2d(\n","        (conv): Conv2d(144, 288, kernel_size=(3, 3), stride=(1, 1), padding=(1, 1), bias=False)\n","        (bn): BatchNorm2d(288, eps=0.001, momentum=0.1, affine=True, track_running_stats=True)\n","      )\n","    )\n","    (branch3): Sequential(\n","      (0): BasicConv2d(\n","        (conv): Conv2d(512, 32, kernel_size=(1, 1), stride=(1, 1), bias=False)\n","        (bn): BatchNorm2d(32, eps=0.001, momentum=0.1, affine=True, track_running_stats=True)\n","      )\n","      (1): BasicConv2d(\n","        (conv): Conv2d(32, 64, kernel_size=(3, 3), stride=(1, 1), padding=(1, 1), bias=False)\n","        (bn): BatchNorm2d(64, eps=0.001, momentum=0.1, affine=True, track_running_stats=True)\n","      )\n","    )\n","    (branch4): Sequential(\n","      (0): MaxPool2d(kernel_size=3, stride=1, padding=1, dilation=1, ceil_mode=True)\n","      (1): BasicConv2d(\n","        (conv): Conv2d(512, 64, kernel_size=(1, 1), stride=(1, 1), bias=False)\n","        (bn): BatchNorm2d(64, eps=0.001, momentum=0.1, affine=True, track_running_stats=True)\n","      )\n","    )\n","  )\n","  (inception4e): Inception(\n","    (branch1): BasicConv2d(\n","      (conv): Conv2d(528, 256, kernel_size=(1, 1), stride=(1, 1), bias=False)\n","      (bn): BatchNorm2d(256, eps=0.001, momentum=0.1, affine=True, track_running_stats=True)\n","    )\n","    (branch2): Sequential(\n","      (0): BasicConv2d(\n","        (conv): Conv2d(528, 160, kernel_size=(1, 1), stride=(1, 1), bias=False)\n","        (bn): BatchNorm2d(160, eps=0.001, momentum=0.1, affine=True, track_running_stats=True)\n","      )\n","      (1): BasicConv2d(\n","        (conv): Conv2d(160, 320, kernel_size=(3, 3), stride=(1, 1), padding=(1, 1), bias=False)\n","        (bn): BatchNorm2d(320, eps=0.001, momentum=0.1, affine=True, track_running_stats=True)\n","      )\n","    )\n","    (branch3): Sequential(\n","      (0): BasicConv2d(\n","        (conv): Conv2d(528, 32, kernel_size=(1, 1), stride=(1, 1), bias=False)\n","        (bn): BatchNorm2d(32, eps=0.001, momentum=0.1, affine=True, track_running_stats=True)\n","      )\n","      (1): BasicConv2d(\n","        (conv): Conv2d(32, 128, kernel_size=(3, 3), stride=(1, 1), padding=(1, 1), bias=False)\n","        (bn): BatchNorm2d(128, eps=0.001, momentum=0.1, affine=True, track_running_stats=True)\n","      )\n","    )\n","    (branch4): Sequential(\n","      (0): MaxPool2d(kernel_size=3, stride=1, padding=1, dilation=1, ceil_mode=True)\n","      (1): BasicConv2d(\n","        (conv): Conv2d(528, 128, kernel_size=(1, 1), stride=(1, 1), bias=False)\n","        (bn): BatchNorm2d(128, eps=0.001, momentum=0.1, affine=True, track_running_stats=True)\n","      )\n","    )\n","  )\n","  (maxpool4): MaxPool2d(kernel_size=2, stride=2, padding=0, dilation=1, ceil_mode=True)\n","  (inception5a): Inception(\n","    (branch1): BasicConv2d(\n","      (conv): Conv2d(832, 256, kernel_size=(1, 1), stride=(1, 1), bias=False)\n","      (bn): BatchNorm2d(256, eps=0.001, momentum=0.1, affine=True, track_running_stats=True)\n","    )\n","    (branch2): Sequential(\n","      (0): BasicConv2d(\n","        (conv): Conv2d(832, 160, kernel_size=(1, 1), stride=(1, 1), bias=False)\n","        (bn): BatchNorm2d(160, eps=0.001, momentum=0.1, affine=True, track_running_stats=True)\n","      )\n","      (1): BasicConv2d(\n","        (conv): Conv2d(160, 320, kernel_size=(3, 3), stride=(1, 1), padding=(1, 1), bias=False)\n","        (bn): BatchNorm2d(320, eps=0.001, momentum=0.1, affine=True, track_running_stats=True)\n","      )\n","    )\n","    (branch3): Sequential(\n","      (0): BasicConv2d(\n","        (conv): Conv2d(832, 32, kernel_size=(1, 1), stride=(1, 1), bias=False)\n","        (bn): BatchNorm2d(32, eps=0.001, momentum=0.1, affine=True, track_running_stats=True)\n","      )\n","      (1): BasicConv2d(\n","        (conv): Conv2d(32, 128, kernel_size=(3, 3), stride=(1, 1), padding=(1, 1), bias=False)\n","        (bn): BatchNorm2d(128, eps=0.001, momentum=0.1, affine=True, track_running_stats=True)\n","      )\n","    )\n","    (branch4): Sequential(\n","      (0): MaxPool2d(kernel_size=3, stride=1, padding=1, dilation=1, ceil_mode=True)\n","      (1): BasicConv2d(\n","        (conv): Conv2d(832, 128, kernel_size=(1, 1), stride=(1, 1), bias=False)\n","        (bn): BatchNorm2d(128, eps=0.001, momentum=0.1, affine=True, track_running_stats=True)\n","      )\n","    )\n","  )\n","  (inception5b): Inception(\n","    (branch1): BasicConv2d(\n","      (conv): Conv2d(832, 384, kernel_size=(1, 1), stride=(1, 1), bias=False)\n","      (bn): BatchNorm2d(384, eps=0.001, momentum=0.1, affine=True, track_running_stats=True)\n","    )\n","    (branch2): Sequential(\n","      (0): BasicConv2d(\n","        (conv): Conv2d(832, 192, kernel_size=(1, 1), stride=(1, 1), bias=False)\n","        (bn): BatchNorm2d(192, eps=0.001, momentum=0.1, affine=True, track_running_stats=True)\n","      )\n","      (1): BasicConv2d(\n","        (conv): Conv2d(192, 384, kernel_size=(3, 3), stride=(1, 1), padding=(1, 1), bias=False)\n","        (bn): BatchNorm2d(384, eps=0.001, momentum=0.1, affine=True, track_running_stats=True)\n","      )\n","    )\n","    (branch3): Sequential(\n","      (0): BasicConv2d(\n","        (conv): Conv2d(832, 48, kernel_size=(1, 1), stride=(1, 1), bias=False)\n","        (bn): BatchNorm2d(48, eps=0.001, momentum=0.1, affine=True, track_running_stats=True)\n","      )\n","      (1): BasicConv2d(\n","        (conv): Conv2d(48, 128, kernel_size=(3, 3), stride=(1, 1), padding=(1, 1), bias=False)\n","        (bn): BatchNorm2d(128, eps=0.001, momentum=0.1, affine=True, track_running_stats=True)\n","      )\n","    )\n","    (branch4): Sequential(\n","      (0): MaxPool2d(kernel_size=3, stride=1, padding=1, dilation=1, ceil_mode=True)\n","      (1): BasicConv2d(\n","        (conv): Conv2d(832, 128, kernel_size=(1, 1), stride=(1, 1), bias=False)\n","        (bn): BatchNorm2d(128, eps=0.001, momentum=0.1, affine=True, track_running_stats=True)\n","      )\n","    )\n","  )\n","  (aux1): None\n","  (aux2): None\n","  (avgpool): AdaptiveAvgPool2d(output_size=(1, 1))\n","  (dropout): Dropout(p=0.2, inplace=False)\n","  (fc): Linear(in_features=1024, out_features=1000, bias=True)\n",")\n"]}]},{"cell_type":"code","metadata":{"id":"uK40Xj0Stous","colab":{"base_uri":"https://localhost:8080/","height":0,"referenced_widgets":["78f7253bf6b34fca93d82e6b6817992c","c077b85b7c5548bdb247c9dea3dafafe","c24e495cff8741e58e7de2234acc34ad","bc58610544f543608a36151152e5ee0e","02ff07afed764e99a1297588a980f337","c59428672e3640569efc53577647b02b
…
e":"stream","name":"stderr","text":["Using cache found in /root/.cache/torch/hub/pytorch_vision_v0.6.0\n","Downloading: \"https://download.pytorch.org/models/squeezenet1_0-b66bff10.pth\" to /root/.cache/torch/hub/checkpoints/squeezenet1_0-b66bff10.pth\n"]},{"output_type":"display_data","data":{"application/vnd.jupyter.widget-view+json":{"model_id":"78f7253bf6b34fca93d82e6b6817992c","version_minor":0,"version_major":2},"text/plain":["  0%|          | 0.00/4.78M [00:00<?, ?B/s]"]},"metadata":{}},{"output_type":"stream","name":"stdout","text":["SqueezeNet(\n","  (features): Sequential(\n","    (0): Conv2d(3, 96, kernel_size=(7, 7), stride=(2, 2))\n","    (1): ReLU(inplace=True)\n","    (2): MaxPool2d(kernel_size=3, stride=2, padding=0, dilation=1, ceil_mode=True)\n","    (3): Fire(\n","      (squeeze): Conv2d(96, 16, kernel_size=(1, 1), stride=(1, 1))\n","      (squeeze_activation): ReLU(inplace=True)\n","      (expand1x1): Conv2d(16, 64, kernel_size=(1, 1), stride=(1, 1))\n","      (expand1x1_activation): ReLU(inplace=True)\n","      (expand3x3): Conv2d(16, 64, kernel_size=(3, 3), stride=(1, 1), padding=(1, 1))\n","      (expand3x3_activation): ReLU(inplace=True)\n","    )\n","    (4): Fire(\n","      (squeeze): Conv2d(128, 16, kernel_size=(1, 1), stride=(1, 1))\n","      (squeeze_activation): ReLU(inplace=True)\n","      (expand1x1): Conv2d(16, 64, kernel_size=(1, 1), stride=(1, 1))\n","      (expand1x1_activation): ReLU(inplace=True)\n","      (expand3x3): Conv2d(16, 64, kernel_size=(3, 3), stride=(1, 1), padding=(1, 1))\n","      (expand3x3_activation): ReLU(inplace=True)\n","    )\n","    (5): Fire(\n","      (squeeze): Conv2d(128, 32, kernel_size=(1, 1), stride=(1, 1))\n","      (squeeze_activation): ReLU(inplace=True)\n","      (expand1x1): Conv2d(32, 128, kernel_size=(1, 1), stride=(1, 1))\n","      (expand1x1_activation): ReLU(inplace=True)\n","      (expand3x3): Conv2d(32, 128, kernel_size=(3, 3), stride=(1, 1), padding=(1, 1))\n","      (expand3x3_activation): ReLU(inplace=True)\n","    )\n","    (6): MaxPool2d(kernel_size=3, stride=2, padding=0, dilation=1, ceil_mode=True)\n","    (7): Fire(\n","      (squeeze): Conv2d(256, 32, kernel_size=(1, 1), stride=(1, 1))\n","      (squeeze_activation): ReLU(inplace=True)\n","      (expand1x1): Conv2d(32, 128, kernel_size=(1, 1), stride=(1, 1))\n","      (expand1x1_activation): ReLU(inplace=True)\n","      (expand3x3): Conv2d(32, 128, kernel_size=(3, 3), stride=(1, 1), padding=(1, 1))\n","      (expand3x3_activation): ReLU(inplace=True)\n","    )\n","    (8): Fire(\n","      (squeeze): Conv2d(256, 48, kernel_size=(1, 1), stride=(1, 1))\n","      (squeeze_activation): ReLU(inplace=True)\n","      (expand1x1): Conv2d(48, 192, kernel_size=(1, 1), stride=(1, 1))\n","      (expand1x1_activation): ReLU(inplace=True)\n","      (expand3x3): Conv2d(48, 192, kernel_size=(3, 3), stride=(1, 1), padding=(1, 1))\n","      (expand3x3_activation): ReLU(inplace=True)\n","    )\n","    (9): Fire(\n","      (squeeze): Conv2d(384, 48, kernel_size=(1, 1), stride=(1, 1))\n","      (squeeze_activation): ReLU(inplace=True)\n","      (expand1x1): Conv2d(48, 192, kernel_size=(1, 1), stride=(1, 1))\n","      (expand1x1_activation): ReLU(inplace=True)\n","      (expand3x3): Conv2d(48, 192, kernel_size=(3, 3), stride=(1, 1), padding=(1, 1))\n","      (expand3x3_activation): ReLU(inplace=True)\n","    )\n","    (10): Fire(\n","      (squeeze): Conv2d(384, 64, kernel_size=(1, 1), stride=(1, 1))\n","      (squeeze_activation): ReLU(inplace=True)\n","      (expand1x1): Conv2d(64, 256, kernel_size=(1, 1), stride=(1, 1))\n","      (expand1x1_activation): ReLU(inplace=True)\n","      (expand3x3): Conv2d(64, 256, kernel_size=(3, 3), stride=(1, 1), padding=(1, 1))\n","      (expand3x3_activation): ReLU(inplace=True)\n","    )\n","    (11): MaxPool2d(kernel_size=3, stride=2, padding=0, dilation=1, ceil_mode=True)\n","    (12): Fire(\n","      (squeeze): Conv2d(512, 64, kernel_size=(1, 1), stride=(1, 1))\n","      (squeeze_activation): ReLU(inplace=True)\n","      (expand1x1): Conv2d(64, 256, kernel_size=(1, 1), stride=(1, 1))\n","      (expand1x1_activation): ReLU(inplace=True)\n","      (expand3x3): Conv2d(64, 256, kernel_size=(3, 3), stride=(1, 1), padding=(1, 1))\n","      (expand3x3_activation): ReLU(inplace=True)\n","    )\n","  )\n","  (classifier): Sequential(\n","    (0): Dropout(p=0.5, inplace=False)\n","    (1): Conv2d(512, 1000, kernel_size=(1, 1), stride=(1, 1))\n","    (2): ReLU(inplace=True)\n","    (3): AdaptiveAvgPool2d(output_size=(1, 1))\n","  )\n",")\n"]}]}]}